net.pkl (torch_old, 7996 bytes, 3 tensors)

weight f4 [10, 1]
00000000: b6c9 a03f 2139 0c3f b03e dfbe c450 623d
00000010: d98f 36bf 803e 93bc af1d 63bf a65c 58bf
00000020: 96c8 1bbd ec0b 5e3e
1.2561557 0.5477467 -0.43602514 0.055252805 -0.71313244 -0.017974138 -0.8871717 -0.8451637
-0.03803309 0.21684235

bias f4 [10]
00000000: a911 89be f83b 5cbe 38c9 1bbf 2674 e4be
00000010: e2d2 81be 64e1 57bf 814f 97be a5fc 15be
00000020: 8e5a acbd 8378 adbd
-0.26771286 -0.21507251 -0.6085391 -0.44619864 -0.25356203 -0.84328294 -0.29552844 -0.14647157
-0.084157094 -0.084702514

weight f4 [1, 10]
00000000: 208e 4b3f 5843 633e efff 1dbe 9531 10bf
00000010: 848a c43e bbed 3fbe 163c 0a3f daee 103f
00000020: acb4 8e3c ddf2 fd3d
0.7951374 0.22193658 -0.15429662 -0.56325656 0.3838693 -0.1874303 0.53997934 0.5661446
0.017420135 0.12399838
